…
 sslNum              | 80    
 ssl_reg             | 1e-06 
 ssldim              | 32    
 subUsrDcy           | 0.9   
 subUsrSize          | 10    
 target              | buy   
 temp                | 0.1   
 test                | True  
 testSize            | 1000  
 testbatch           | 64    
 trnNum              | 10000 
 tstEpoch            | 3     
 uid                 | 0     
==============================
INFO:root:Device: cpu
INFO:root:Load corpus from Datasets\amazon\Handler.pkl
INFO:root:#params: 13567616
INFO:root:SelfGNN(
  (additive_attention0): AdditiveAttention(
    (dense): Linear(in_features=64, out_features=64, bias=True)
  )
  (additive_attention1): AdditiveAttention(
    (dense): Linear(in_features=64, out_features=64, bias=True)
  )
  (multihead_self_attention0): MultiHeadSelfAttention(
    (W_Q): Linear(in_features=64, out_features=64, bias=True)
    (W_K): Linear(in_features=64, out_features=64, bias=True)
    (W_V): Linear(in_features=64, out_features=64, bias=True)
  )
  (multihead_self_attention1): MultiHeadSelfAttention(
    (W_Q): Linear(in_features=64, out_features=64, bias=True)
    (W_K): Linear(in_features=64, out_features=64, bias=True)
    (W_V): Linear(in_features=64, out_features=64, bias=True)
  )
  (multihead_self_attention_sequence): ModuleList(
    (0): MultiHeadSelfAttention(
      (W_Q): Linear(in_features=64, out_features=64, bias=True)
      (W_K): Linear(in_features=64, out_features=64, bias=True)
      (W_V): Linear(in_features=64, out_features=64, bias=True)
    )
    (1): MultiHeadSelfAttention(
      (W_Q): Linear(in_features=64, out_features=64, bias=True)
      (W_K): Linear(in_features=64, out_features=64, bias=True)
      (W_V): Linear(in_features=64, out_features=64, bias=True)
    )
    (2): MultiHeadSelfAttention(
      (W_Q): Linear(in_features=64, out_features=64, bias=True)
      (W_K): Linear(in_features=64, out_features=64, bias=True)
      (W_V): Linear(in_features=64, out_features=64, bias=True)
    )
    (3): MultiHeadSelfAttention(
      (W_Q): Linear(in_features=64, out_features=64, bias=True)
      (W_K): Linear(in_features=64, out_features=64, bias=True)
      (W_V): Linear(in_features=64, out_features=64, bias=True)
    )
  )
  (gru): GRU(64, 64, batch_first=True)
)
INFO:root:Namespace(model_mode='', model_name='SelfGNN')
INFO:root:--------------------------------------------- BEGIN: 2025-11-27 21:32:41 ---------------------------------------------
INFO:root:
==============================
 Arguments           | Values 
==============================
 att_layer           | 4     
…
 sslNum              | 80    
 ssl_reg             | 1e-06 
 ssldim              | 32    
 subUsrDcy           | 0.9   
 subUsrSize          | 10    
 target              | buy   
 temp                | 0.1   
 test                | True  
 testSize            | 1000  
 testbatch           | 64    
 trnNum              | 10000 
 tstEpoch            | 3     
 uid                 | 0     
==============================
INFO:root:Device: cpu
INFO:root:Load corpus from Datasets\amazon\Handler.pkl
INFO:root:#params: 13582145
INFO:root:SelfGNN(
  (additive_attention0): AdditiveAttention(
    (dense): Linear(in_features=64, out_features=64, bias=True)
  )
  (additive_attention1): AdditiveAttention(
    (dense): Linear(in_features=64, out_features=64, bias=True)
  )
  (multihead_self_attention0): MultiHeadSelfAttention(
    (W_Q): Linear(in_features=64, out_features=64, bias=True)
    (W_K): Linear(in_features=64, out_features=64, bias=True)
    (W_V): Linear(in_features=64, out_features=64, bias=True)
  )
  (multihead_self_attention1): MultiHeadSelfAttention(
    (W_Q): Linear(in_features=64, out_features=64, bias=True)
    (W_K): Linear(in_features=64, out_features=64, bias=True)
    (W_V): Linear(in_features=64, out_features=64, bias=True)
  )
  (multihead_self_attention_sequence): ModuleList(
    (0): MultiHeadSelfAttention(
      (W_Q): Linear(in_features=64, out_features=64, bias=True)
      (W_K): Linear(in_features=64, out_features=64, bias=True)
      (W_V): Linear(in_features=64, out_features=64, bias=True)
    )
    (1): MultiHeadSelfAttention(
      (W_Q): Linear(in_features=64, out_features=64, bias=True)
      (W_K): Linear(in_features=64, out_features=64, bias=True)
      (W_V): Linear(in_features=64, out_features=64, bias=True)
    )
    (2): MultiHeadSelfAttention(
      (W_Q): Linear(in_features=64, out_features=64, bias=True)
      (W_K): Linear(in_features=64, out_features=64, bias=True)
      (W_V): Linear(in_features=64, out_features=64, bias=True)
    )
    (3): MultiHeadSelfAttention(
      (W_Q): Linear(in_features=64, out_features=64, bias=True)
      (W_K): Linear(in_features=64, out_features=64, bias=True)
      (W_V): Linear(in_features=64, out_features=64, bias=True)
    )
  )
  (meta_layers): ModuleDict(
    (meta2): Linear(in_features=192, out_features=32, bias=True)
    (meta3): Linear(in_features=32, out_features=1, bias=True)
  )
  (rnn): LSTM(64, 64, batch_first=True, dropout=0.5)
)
INFO:root:Namespace(model_mode='', model_name='SelfGNN')
INFO:root:--------------------------------------------- BEGIN: 2025-11-28 15:33:14 ---------------------------------------------
INFO:root:
==============================
 Arguments           | Values 
==============================
…
 ssldim              | 32    
 subUsrDcy           | 0.9   
 subUsrSize          | 10    
 target              | buy   
 temp                | 0.1   
 test                | True  
 testSize            | 1000  
 testbatch           | 64    
 trnNum              | 10000 
 tstEpoch            | 3     
 uid                 | 0     
==============================
INFO:root:Device: cpu
INFO:root:Save corpus to Datasets\amazon\Handler.pkl
INFO:root:#params: 13565377
INFO:root:SelfGNN(
  (rnn): GRU(64, 64, batch_first=True)
  (multihead_self_attention0): MultiHeadSelfAttention(
    (W_Q): Linear(in_features=64, out_features=64, bias=True)
    (W_K): Linear(in_features=64, out_features=64, bias=True)
    (W_V): Linear(in_features=64, out_features=64, bias=True)
  )
  (multihead_self_attention1): MultiHeadSelfAttention(
    (W_Q): Linear(in_features=64, out_features=64, bias=True)
    (W_K): Linear(in_features=64, out_features=64, bias=True)
    (W_V): Linear(in_features=64, out_features=64, bias=True)
  )
  (multihead_self_attention_sequence): ModuleList(
    (0): MultiHeadSelfAttention(
      (W_Q): Linear(in_features=64, out_features=64, bias=True)
      (W_K): Linear(in_features=64, out_features=64, bias=True)
      (W_V): Linear(in_features=64, out_features=64, bias=True)
    )
    (1): MultiHeadSelfAttention(
      (W_Q): Linear(in_features=64, out_features=64, bias=True)
      (W_K): Linear(in_features=64, out_features=64, bias=True)
      (W_V): Linear(in_features=64, out_features=64, bias=True)
    )
    (2): MultiHeadSelfAttention(
      (W_Q): Linear(in_features=64, out_features=64, bias=True)
      (W_K): Linear(in_features=64, out_features=64, bias=True)
      (W_V): Linear(in_features=64, out_features=64, bias=True)
    )
    (3): MultiHeadSelfAttention(
      (W_Q): Linear(in_features=64, out_features=64, bias=True)
      (W_K): Linear(in_features=64, out_features=64, bias=True)
      (W_V): Linear(in_features=64, out_features=64, bias=True)
    )
  )
  (meta_layers): ModuleDict(
    (meta2): Linear(in_features=192, out_features=32, bias=True)
    (meta3): Linear(in_features=32, out_features=1, bias=True)
  )
)
INFO:root:Namespace(model_mode='', model_name='SelfGNN')
INFO:root:--------------------------------------------- BEGIN: 2025-11-28 23:01:28 ---------------------------------------------
INFO:root:
==============================
 Arguments           | Values 
==============================
 att_layer           | 4     
 att_size            | 12000 
…
