…
  (5995, 3582)  1020111017
  (5995, 3590)  1020113184
  (5995, 3599)  1020097414
  (5995, 3651)  1020096234
Save corpus to ./data\ml1m\Handler.pkl
D:\A1111\School\中大课件\大三上\机器学习实验\大作业\SYSU-2023-ReChorus\src\Utils_\utils.py:39: RuntimeWarning: invalid value encountered in sqrt
  rowD = np.squeeze(np.array(1 / (np.sqrt(np.sum(mat, axis=1) + 1e-8) + 1e-8)))
D:\A1111\School\中大课件\大三上\机器学习实验\大作业\SYSU-2023-ReChorus\src\Utils_\utils.py:40: RuntimeWarning: invalid value encountered in sqrt
  colD = np.squeeze(np.array(1 / (np.sqrt(np.sum(mat, axis=0) + 1e-8) + 1e-8)))
#params: 1964801
SelfGNN(
  (time_fc): Linear(in_features=64, out_features=64, bias=True)
  (lstm): LSTM(64, 64, batch_first=True)
  (multihead_self_attention0): MultiHeadSelfAttention(
    (W_Q): Linear(in_features=64, out_features=64, bias=False)
    (W_K): Linear(in_features=64, out_features=64, bias=False)
    (W_V): Linear(in_features=64, out_features=64, bias=False)
  )
  (multihead_self_attention1): MultiHeadSelfAttention(
    (W_Q): Linear(in_features=64, out_features=64, bias=False)
    (W_K): Linear(in_features=64, out_features=64, bias=False)
    (W_V): Linear(in_features=64, out_features=64, bias=False)
  )
  (multihead_self_attention_sequence): ModuleList(
    (0): MultiHeadSelfAttention(
      (W_Q): Linear(in_features=64, out_features=64, bias=False)
      (W_K): Linear(in_features=64, out_features=64, bias=False)
      (W_V): Linear(in_features=64, out_features=64, bias=False)
    )
  )
  (meta2_fc): Linear(in_features=192, out_features=32, bias=True)
  (meta3_fc): Linear(in_features=32, out_features=1, bias=True)
  (layer_norm): LayerNorm((64,), eps=1e-05, elementwise_affine=True)
)
USER 6040 ITEM 3706
18.148212
Steps 0/24: hit10 = 66, ndcg10 = 34
20.730728
Steps 1/24: hit10 = 74, ndcg10 = 37
26.704718
Steps 2/24: hit10 = 69, ndcg10 = 31
29.40216
Steps 3/24: hit10 = 65, ndcg10 = 31
26.982092
Steps 4/24: hit10 = 67, ndcg10 = 33
20.113005
Steps 5/24: hit10 = 71, ndcg10 = 37
29.819677
Steps 6/24: hit10 = 70, ndcg10 = 35
28.83403
Steps 7/24: hit10 = 63, ndcg10 = 30
…
